…
fl=1.5, pose=12.0, kobj=1.0, nbs=64, hsv_h=0.015, hsv_s=0.7, hsv_v=0.4, degrees=0.0, translate=0.1, scale=0.5, shear=0.0, perspective=0.0, flipud=0.0, fliplr=0.5, bgr=0.0, mosaic=1.0, mixup=0.0, copy_paste=0.0, copy_paste_mode=flip, auto_augment=randaugment, erasing=0.4, crop_fraction=1.0, cfg=None, tracker=botsort.yaml, save_dir=/Users/tanish/Downloads/CODE/CEOAS/Njobvu-AI/public/projects/tan-test-4/training/logs/1752179083505/train2
Overriding model.yaml nc=80 with nc=3

from  n    params  module                                       arguments
0                  -1  1       464  ultralytics.nn.modules.conv.Conv             [3, 16, 3, 2]
1                  -1  1      4672  ultralytics.nn.modules.conv.Conv             [16, 32, 3, 2]
2                  -1  1      6640  ultralytics.nn.modules.block.C3k2            [32, 64, 1, False, 0.25]
3                  -1  1     36992  ultralytics.nn.modules.conv.Conv             [64, 64, 3, 2]
4                  -1  1     26080  ultralytics.nn.modules.block.C3k2            [64, 128, 1, False, 0.25]
5                  -1  1    147712  ultralytics.nn.modules.conv.Conv             [128, 128, 3, 2]
6                  -1  1     87040  ultralytics.nn.modules.block.C3k2            [128, 128, 1, True]
7                  -1  1    295424  ultralytics.nn.modules.conv.Conv             [128, 256, 3, 2]
8                  -1  1    346112  ultralytics.nn.modules.block.C3k2            [256, 256, 1, True]
9                  -1  1    164608  ultralytics.nn.modules.block.SPPF            [256, 256, 5]
10                  -1  1    249728  ultralytics.nn.modules.block.C2PSA           [256, 256, 1]
11                  -1  1         0  torch.nn.modules.upsampling.Upsample         [None, 2, 'nearest']
12             [-1, 6]  1         0  ultralytics.nn.modules.conv.Concat           [1]
13                  -1  1    111296  ultralytics.nn.modules.block.C3k2            [384, 128, 1, False]
14                  -1  1         0  torch.nn.modules.upsampling.Upsample         [None, 2, 'nearest']
15             [-1, 4]  1         0  ultralytics.nn.modules.conv.Concat           [1]
16                  -1  1     32096  ultralytics.nn.modules.block.C3k2            [256, 64, 1, False]
17                  -1  1     36992  ultralytics.nn.modules.conv.Conv             [64, 64, 3, 2]
18            [-1, 13]  1         0  ultralytics.nn.modules.conv.Concat           [1]
19                  -1  1     86720  ultralytics.nn.modules.block.C3k2            [192, 128, 1, False]
20                  -1  1    147712  ultralytics.nn.modules.conv.Conv             [128, 128, 3, 2]
21            [-1, 10]  1         0  ultralytics.nn.modules.conv.Concat           [1]
22                  -1  1    378880  ultralytics.nn.modules.block.C3k2            [384, 256, 1, True]
23        [16, 19, 22]  1    431257  ultralytics.nn.modules.head.Detect           [3, [64, 128, 256]]
YOLO11n summary: 181 layers, 2,590,425 parameters, 2,590,409 gradients, 6.4 GFLOPs

Transferred 448/499 items from pretrained weights
Freezing layer 'model.23.dfl.conv.weight'

[34m[1mtrain: [0mScanning /Users/tanish/Downloads/CODE/CEOAS/Njobvu-AI/public/projects/tan-test-4/training/logs/1752179083505/labels/train...:   0%|          | 0/4 [00:00<?, ?it/s]
[34m[1mtrain: [0mScanning /Users/tanish/Downloads/CODE/CEOAS/Njobvu-AI/public/projects/tan-test-4/training/logs/1752179083505/labels/train... 4 images, 4 backgrounds, 0 corrupt: 100%|â–ˆâ–ˆâ–ˆâ–ˆâ–ˆâ–ˆâ–ˆâ–ˆâ–ˆâ–ˆ| 4/4 [00:00<00:00, 308.50it/s]
…
